new_model.tflite (tflite, 408716 bytes, 4 tensors)

unknown_0 f4 [128]
00000000: f264 003e 3773 623d a590 0a3e 1826 b43d
00000010: 0541 583d 346d 193e f48f 44bd 6e8e 87bc
00000020: 71cd e7bd 0493 333d 91d5 06bd ab10 f2bc
00000030: 8bd0 ce3d 963e f3bd d050 8a3c 8067 b4bd
00000040: 496c 7c3c 35f5 90bd adf6 1a3e 5e54 d93d
00000050: 9c42 01be 992a cdbc bd73 823d 9956 05bd
00000060: 26c4 8f3d 94d9 d63d 1789 e7bc 6e06 f2bc
00000070: 4cdf b43d db39 083e d4e6 19be 87ee d73d
00000080: 2286 393d 3b18 d0bc bf86 313d 9f42 47bb
00000090: 5a4b 263b f2dc a93d 79f9 1cbd dc61 413e
000000a0: 56cd 923d 278a 92bc 1dab 283d 5e6a 403e
000000b0: 9313 0bbd 10b5 fb3c 10ca 6c3e 1ef3 853d
000000c0: c519 3dbe 0e83 9c3d 0aba bb3d 29dd f33d
000000d0: e263 1b3c 5efa 8f3c 43d3 cabd dea1 273d
000000e0: c8a2 58bc b8be 173d 2ce1 3a3d 6f2e 823e
000000f0: b576 683d 00eb 883e cc88 7c3d a975 9c3d
00000100: 7d09 82bc 90ea d0bd 7b75 1dbc 797d 553e
00000110: 4039 05bd 4bb2 5f3c 6363 093e 3e44 b23b
00000120: 4ab0 f8bd 5d90 12be cdbf 3d3d 22d4 353d
00000130: 6cab d4bc e4e4 1c3d 229c 4abe d063 2a3d
00000140: 1117 0cbe 491e 9fbd 0d31 013e 46ae ebbb
00000150: 9c4b 3abc 6493 2abe c5ff bf3d 7a51 1e3e
00000160: 2808 d1ba 226d 0ebd b4f5 a03d 46f2 6a3a
00000170: 4b09 2bbe d041 7c3d 7348 393e 0012 4f3d
00000180: 154a c93d 28e3 c13d d9a9 04be 7836 5dbd
00000190: c64a 113d cb33 d03d 7f5f 11bc 01a3 883d
000001a0: 5a92 893c d871 4f3d 2112 393e 4971 fb3d
000001b0: a426 62bd 8c4c fd3d 7ed6 27bd d20a d13d
000001c0: dec2 90bc 1cb2 01be 88b6 773c 19ea 47bd
000001d0: a419 023e 825c d2bd 96b0 e7bd dd46 81bd
000001e0: 377b d9bc a396 1b3c a5e7 b33c c687 573d
000001f0: 8414 f43d 3488 0dbe 7a58 d73d 2111 de3d
0.12538508 0.05528566 0.1353174 0.08796328 0.052796382 0.14983064 -0.047988847 -0.016547408
-0.11318482 0.043841377 -0.032918517 -0.029548964 0.1009837 -0.11877172 0.016884238 -0.088088036
0.015406677 -0.070780195 0.15133162 0.10611795 -0.12623066 -0.025044726 0.063697316 -0.03255329
0.07019834 0.104907185 -0.028263612 -0.029544082 0.08831653 0.1330332 -0.1502946 0.10543542
0.045293935 -0.025402179 0.043341395 -0.00304047 0.0025374503 0.08294095 -0.038323853 0.18884987
0.07168071 -0.017888142 0.04117881 0.18790576 -0.033954214 0.030725986 0.23123956 0.065405115
-0.18466862 0.07642184 0.091663435 0.11907417 0.009484263 0.017575439 -0.09903576 0.040925853
-0.013222404 0.037047118 0.045624897 0.2542605 0.056753833 0.2674179 0.061653897 0.076396294
-0.015873665 -0.10200989 -0.009610529 0.20848645 -0.0325253 0.013653348 0.1341682 0.005440264
-0.121429995 -0.14312883 0.046325494 0.04439176 -0.025960647 0.038304225 -0.19786122 0.041599095
-0.13680674 -0.07769448 0.12616368 -0.007192406 -0.011370566 -0.16657788 0.09374956 0.15460768
-0.0015947865 -0.034772046 0.07859364 0.0008962493 -0.16702764 0.0615862 0.18094043 0.050554276
0.09828583 0.09467155 -0.12955417 -0.054007024 0.0354717 0.10166129 -0.008872866 0.066717155
0.016793419 0.05064568 0.18073322 0.12277467 -0.05521263 0.12368116 -0.04097604 0.10207142
-0.017671045 -0.126656 0.015119202 -0.048807237 0.12705094 -0.10271551 -0.11312978 -0.06312344
-0.026548011 0.009496364 0.021961043 0.052619718 0.119179755 -0.13821489 0.105149224 0.10843111

unknown_2 f4 [10]
00000000: 8a25 b7bd 2438 91bd 313b e4bd c659 c9bc
00000010: 2695 a03d e5fe 953d 36b9 30bd 080b e9bd
00000020: 0cb0 2e3e 3a54 f33c
-0.08942707 -0.07090786 -0.11144102 -0.02457894 0.07840948 0.07324008 -0.04314538 -0.11379057
0.17059344 0.029703248

sequential/dense/MatMul;StatefulPartitionedCall/sequential/dense/MatMul f4 [128, 784]
00000000: e6fc 563d 7905 4fbd 1f2f 853d d842 a2bd
00000010: e0f9 c6bb ea5a a1bd 3ab5 553d 2fdc 5fbd
00000020: 404b 9d3b 0a84 f2bc 9811 233d 30d7 0b3d
00000030: 9c2f d3bc a468 84bd e116 8e3d 1bce 8c3d
00000040: fda8 85bd fe68 613d 7fed 853d 458f 993d
00000050: 4891 1f3d bf0d 873d 713c 93bd 2207 fabc
00000060: abbd 38bd f800 ec3c 6e03 563d a3b6 0ebd
00000070: e62f 3a3d c0ef 65bc 45e7 973d f05d 863b
00000080: d169 b53d f2be 793d 8b21 0f3d 144c fa3d
00000090: c120 de3d c198 b03d 879a a23d 1193 3b3e
000000a0: 5048 833d 6a3f a9bd 4aea bd3c 9cb2 de3d
000000b0: 1f7a 0e3e bd3a 893e ab6f 393d dfe4 193e
000000c0: 26c5 f93c 20e7 8ebd 9ceb f73d 897d e53c
000000d0: 8a97 013d 1a33 783d fc2b 88bd 9e74 6d3d
000000e0: 5bc4 80bd 4004 893a 122d 47bd 3b2e 42bd
000000f0: 86dd ab3b 1b87 9c3c 72e9 f53d 6e79 983e
00000100: 33d3 c23e acd5 8a3e dc18 ae3e 8626 8c3e
00000110: 7583 5f3e 287a 3b3e e3e2 583d 1251 053e
00000120: 0298 37bc b05b bb3b d547 2f3d 49a1 99bd
00000130: 913a babd d925 a5bd b1db 033d 2f3b be3d
00000140: 0695 813b 8825 e33c 9ec8 743d f346 3dbd
00000150: ca98 20bd 406c baba ae6c f2bc c385 34bd
00000160: 594c 9dbc ffac 413e 4e44 b73e da97 d53e
00000170: 81b7 b23d 3fad 693d a6a0 4b3d f02e 00bb
00000180: 5a70 e3bd c6d2 ecbd 78f7 25be 7048 68bc
00000190: 2b7e e4bd 18ef 4abe 3000 1abe e594 6cbe
000001a0: 4e1e 3dbe 3453 0bbe ac83 9bbc 2301 7cbc
000001b0: e463 f53c 64df c939 3dc9 813d 28c9 31bc
000001c0: 0cbf 94bc 166a 0a3d 2c1a 2e3d ab66 473c
000001d0: a405 323e 250a 513e eebe 5c3e 2f51 533d
000001e0: ac74 813c 98d7 9a3b e085 c7bd 67ca 56be
000001f0: e0b1 20be 2bc4 ccbd 32af 0dbe ecdd 27be
00000200: a7af 50be 7ad6 7fbe 2fb3 67be 134c b2be
00000210: 5fad a4be c066 ddbd ab52 09bc c4aa b0bd
00000220: 5651 723c bc1d 8f3d 37ce 643d f82e 82bd
00000230: 3ad8 7bbd 507c 55bc d8a0 ddbc 81b1 72bd
00000240: 25ec 5c3e 811a 293e 22f2 07bc ac7a 2a3d
00000250: e433 073e ca04 863d 82b4 ecbd 324a 28be
00000260: ac95 cfbd 64ba c7bd e012 33bd 1eaf 793c
00000270: c841 0a3e 215c 9a3d 749c 233c b9f1 363d
00000280: 17f4 c9bd 7cee 3dbe 5101 89bd e42d 70be
00000290: 1cbd 7e3c ddf7 613d 0956 e1bc 82be 04bd
000002a0: 52f7 3d3d e755 9bbd 2e0f 683c bb60 853e
000002b0: deb0 7d3e 5038 a03d bd0a e9bd ea50 bfbd
000002c0: e550 893b 55e2 f73d cc2e 4b3d a376 2b3d
000002d0: 3419 d53d 0e59 e93d 2b72 443b 815d 9f3d
000002e0: 2f15 d13d 4c32 3b3d 8307 a13d 2981 a83d
000002f0: 9400 c9bc 8b29 9bbd dba0 11be bafc ebbd
00000300: 18d4 67be 8dc5 c4bd 64f9 b6bd d975 2ebd
00000310: 921b 023c c52f a13d 2737 793e 73c2 723e
00000320: 8e4b f63d a547 d6bd a15a 17bd 6af5 ab3c
00000330: 6f9b 7e3b f162 ad3d b62e b8bd 6e2b 4abd
00000340: 3473 9dbc cb19 dd3d 9a38 e73c f006 94bd
00000350: a90b debc 52f9 15bd dacb a1bc e506 e8bc
00000360: 8f14 37bd 6937 3b3d ae61 c7bd 024e 30be
00000370: 1911 8ebe 6eca 36be 9ddc 673c 7556 a6bd
00000380: b144 11be 997d b73d 0417 113e 7732 b13d
00000390: 7833 a63d 1136 083d f827 c63d 5106 ee3d
000003a0: d775 353d a171 8fbd 0da3 bb3d e903 013e
000003b0: 0a63 9a3d 33ec 7ebd f827 cbbb 3984 2abd
000003c0: 73c2 93bd f5da 1abe 9393 bb3c 2404 b8bc
000003d0: 6712 f7bc 9f9a 4b3d efc2 89bb 4a08 56be
000003e0: e4fc 3bbe 0175 4dbe 883e 0cbe 5510 cabd
000003f0: 271a 143e 8c55 a83c 71f1 443e ddaf 863d
0.052487276 -0.05054233 0.06503128 -0.07922906 -0.006072268 -0.078786686 0.052174784 -0.054653343
0.0048002303 -0.029603977 0.0398117 0.034140766 -0.025779538 -0.06465271 0.069379576 0.06875249
-0.065263726 0.05503177 0.065394394 0.074980296 0.03895691 0.06594419 -0.07189263 -0.03052098
-0.045102756 0.028809056 0.052249365 -0.034842145 0.045455836 -0.014034212 0.07417158 0.0041005537
0.088580735 0.060973115 0.0349441 0.12221542 0.10846091 0.086228855 0.0793963 0.1831782
0.06410277 -0.082640484 0.023183007 0.10873911 0.13913773 0.26802626 0.04527251 0.15028714
0.030489516 -0.06977677 0.12105486 0.028013961 0.03163866 0.06059561 -0.06649014 0.057972543
-0.06287452 0.0010453537 -0.048626967 -0.04740737 0.0052449135 0.019107392 0.12007417 0.29780143
0.38051757 0.27116144 0.3400334 0.2737314 0.2182749 0.18308318 0.05295075 0.13019207
-0.011205675 0.005717717 0.042793114 -0.07501466 -0.09093202 -0.080638595 0.032191936 0.09288632
0.0039545326 0.027727857 0.059761636 -0.04621024 -0.03920821 -0.0014222935 -0.029592838 -0.044072878
-0.019201444 0.18913649 0.357943 0.41717416 0.08726407 0.057049986 0.049713753 -0.0019559227
-0.11105414 -0.11563639 -0.16207683 -0.014177427 -0.11156877 -0.1981777 -0.15039134 -0.23103674
-0.18468592 -0.13605958 -0.018983684 -0.01538113 0.029954858 0.00038504147 0.06337211 -0.010851182
-0.018157504 0.033792578 0.04250543 0.012170474 0.17384964 0.20414026 0.21557209 0.051591095
0.015802704 0.004725408 -0.097423315 -0.20975648 -0.15692854 -0.099983536 -0.13836363 -0.1639325
-0.20379506 -0.2498416 -0.22626947 -0.34823665 -0.32163522 -0.10810614 -0.008381526 -0.08626321
0.0147899 0.06988093 0.055860724 -0.06356615 -0.061485507 -0.013030127 -0.027054235 -0.059251312
0.21574457 0.16514017 -0.008297475 0.041620895 0.13203388 0.06543882 -0.11557867 -0.16434553
-0.101359695 -0.09752348 -0.043719172 0.015239505 0.13501656 0.075371034 0.009986032 0.04466412
-0.098610096 -0.18548006 -0.06689704 -0.23455006 0.015548017 0.05516802 -0.027506845 -0.032408245
0.04637844 -0.07584744 0.014163775 0.26050362 0.247745 0.07823241 -0.11379001 -0.09341605
0.0041905516 0.12103716 0.049605176 0.041861188 0.10405198 0.11393939 0.0029975276 0.07781506
0.102091186 0.045702264 0.07862761 0.0822776 -0.024536408 -0.07576283 -0.14221518 -0.11522813
-0.22639501 -0.09607992 -0.08934286 -0.042592857 0.007941144 0.078704394 0.24337445 0.23706989
0.1202613 -0.10462884 -0.036951665 0.020991046 0.003884997 0.08466137 -0.089932844 -0.049357824
-0.019219972 0.10795935 0.028225232 -0.07227886 -0.02710517 -0.036614724 -0.019750524 -0.0283236
-0.04469734 0.04570714 -0.09735428 -0.17217258 -0.2774742 -0.17850658 0.014151719 -0.08121959
-0.1418636 0.08959503 0.14168936 0.086522035 0.08115286 0.033254687 0.09675592 0.116222985
0.044301834 -0.07004095 0.09161959 0.12599148 0.075384215 -0.062236976 -0.006199833 -0.041630004
-0.072148226 -0.15122588 0.022897517 -0.022462912 -0.030160142 0.049708005 -0.004204146 -0.209016
-0.18358189 -0.20064165 -0.13695729 -0.09866396 0.14463101 0.020548604 0.19232728 0.06576512

sequential/dense_1/MatMul;StatefulPartitionedCall/sequential/dense_1/MatMul f4 [10, 128]
00000000: 837b b2be 3680 dbbe f8c2 aabe 1069 02bf
00000010: 7972 1bbf da25 b3bc b702 8bbc a07e e8be
00000020: 9a11 e23d 0369 2e3e 9460 523e a242 443e
00000030: c703 95bc 1e5a b5bd caa3 53bb 0244 9fbd
00000040: d41c f3be 5166 543e 9eff e9be 7d1e b73e
00000050: 7cc9 863e 48b9 babe 9c04 b5be 6018 2f3e
00000060: 2f16 d8be 2e13 f93d 8437 94be 5ea1 3e3e
00000070: 1aa7 90be 4535 a03e 5c59 223e 0342 aabe
00000080: a44c 223e c2dd 303e a9c1 9ebe 0bd3 1b3e
00000090: ae6f 4bbc 9cc4 e3bd 6980 933d 021e 85bd
000000a0: b3e3 fd3e 747e 15be b752 8cbe d6f6 683e
000000b0: eb58 13bf 56ac 6f3e 7b1c efbd 3127 86be
000000c0: 3d14 a7be 01a2 07bf 893e 47bc f74e 43bf
000000d0: 42a2 ad3d d8e2 6d3c 9d0e 3fbe 41c6 5c3e
000000e0: f5cc 043e dcfa b2be b0c9 be3e b28c 69bd
000000f0: a9c5 bcbc 8cb8 8fbe 0294 dcbe c08f f6be
00000100: 3f3d 9ebe 5b9d ddbe b12e d5bd 56ad f7bc
00000110: 133c b5be 25aa 233e bb43 e7be ff92 d2be
00000120: e67d 4e3e e80f b6bd fe6e a8bc cd59 58bf
00000130: 3858 2e3e 321e 783d c073 c23d 7f02 e5be
00000140: 3a46 613d 17aa 853c fdde c0bd 4510 7cbe
00000150: 48cb ce3c 22eb 543d 5ed8 e3be c430 2b3e
00000160: 0398 dc3c 443a c4bd 167f 9c3e 1d71 163e
00000170: 0686 603e 80c4 12bf 88ed e93d a29a 18bf
00000180: 587d 21bd 91fd c9be 8f6c 653e 66c1 b9bd
00000190: 97b7 243e 6b5b 3d3e e831 f4bc 7a22 293d
000001a0: 3871 fc3d a250 443e 2764 76be 291c 56be
000001b0: d7eb 4d3e bb60 653e 9260 0bbf efea 54bd
000001c0: 332d 663e a7ea 59be e810 1bbf df5c 653e
000001d0: fb1f a43e 4557 42be 6291 293e c334 2fbe
000001e0: 0a91 4e3d 33a4 9ebe bd1d 283e 9e85 0ebe
000001f0: 6873 85be 69fd 183e 1ae3 11bf 4d90 f53d
00000200: 7099 09bd 3c08 b83e 1818 c4be 962f ec3d
00000210: 5964 803e 938b 65be c79d bb3e 4ff4 1e3e
00000220: 2a5e 5ebe be6c 51be b3d2 42be 736b de3d
00000230: 8637 85be 2e8d 263c a4c2 aabb 9163 893d
00000240: d00b b03e c911 bdbe 0add a33e 585f afbe
00000250: ecb8 c1be 4cb5 f33d 4f19 083e 5aa8 c33d
00000260: a771 063f e091 bfbd 94f1 03bf 72e8 a9be
00000270: b3ba f0be 56c7 763e 4c53 aabe aab8 933e
00000280: 0488 8e3e c1eb dd3d 11ce ea3d 8465 08bf
00000290: 2a0a 3b3e 9c61 223c 66a3 57bf a70a 21bf
000002a0: 23ec 0f3e 945f 2ebe 0bf2 1f3e fa2f ae3d
000002b0: 6d6b 573e a22d de3d 8708 4ebe 6beb 673d
000002c0: 0be4 1c3e 5939 e4be e57e 01be 7d16 5c3e
000002d0: d8aa 9d3c 50c2 4fbe bd90 4b3e 61d5 20be
000002e0: e042 35bd e2cf 9bbd a27f c4be 01f0 c93d
000002f0: b292 fbbe 7bdf 26bd 1005 173d 9368 8e3e
00000300: 34e3 783e f408 043e 2e2d 463d f832 f23d
00000310: ec60 9fbc 7dfc 3b3e d9fa 4c3f 0c66 a9bd
00000320: 6410 1abd 0e90 103d 278e d43e c4fb 813e
00000330: 89ef 60be 7a16 b6be 3d0a 85be 1b9a 1abf
00000340: 6bb9 bbbd 9a22 d63d bf26 893e 1cd6 a93e
00000350: 79e3 d5be 1c39 863d 15d3 f33d d781 d3be
00000360: 7ce2 90bb 4290 43bf 4a24 cd3e 70ac abbe
00000370: 46b5 5dbe 99fc 3e3e 5775 bfbe 1bd6 293e
00000380: d2b5 153e 456b d23d 0316 a33d 4199 01bf
00000390: dc2a 07bf 1306 d13e e854 b43d 26b5 933d
000003a0: bbc5 d9be 963c 05bf e1f2 113e 387c 93bb
000003b0: c313 1fbf 3cf9 8abe 7373 93be 565e 223e
000003c0: ae20 18bf 3757 66bd 7709 c03c 4f84 e7be
000003d0: b17c 60be cb2b 493e 0bdf 08bf cddb 983a
000003e0: d63f 34be f7b8 b13d 4e7f 4c3c 7f3a 11bf
000003f0: 40a6 9a3d c474 a33d 35c9 eabe a6c0 6dbe
-0.34859857 -0.42871255 -0.33351874 -0.5094156 -0.60721546 -0.021868635 -0.016969068 -0.45409107
0.110385135 0.17032246 0.20544654 0.19166043 -0.018190278 -0.08855079 -0.003229367 -0.07776643
-0.47482932 0.20742156 -0.45702833 0.35765448 0.26325595 -0.36469483 -0.3535508 0.17099142
-0.42204425 0.12161861 -0.28948605 0.18616244 -0.28252488 0.3129064 0.158544 -0.33253488
0.15849549 0.17272094 -0.31007126 0.15217225 -0.012416763 -0.11121485 0.07202227 -0.06499864
0.49587783 -0.1459902 -0.27406856 0.2275041 -0.57557553 0.23405585 -0.11675354 -0.26201776
-0.32632628 -0.52981573 -0.012160906 -0.76292366 0.08478214 0.014519416 -0.18657918 0.21560003
0.1296881 -0.34957016 0.3726325 -0.057018943 -0.02304347 -0.28070486 -0.4308167 -0.48156548
-0.30906102 -0.43284115 -0.10409296 -0.03023402 -0.35397395 0.15982874 -0.45168862 -0.41127774
0.20165214 -0.088897526 -0.020560738 -0.84512025 0.1702584 0.06057567 0.09494734 -0.44728467
0.054998614 0.016316457 -0.09417532 -0.24615581 0.025243416 0.051982053 -0.44501013 0.16717821
0.026927954 -0.09581426 0.3056571 0.14691587 0.21926126 -0.57331085 0.114222586 -0.5961095
-0.039426178 -0.39451268 0.22404693 -0.09070091 0.16085659 0.18491904 -0.029808953 0.041292645
0.12326282 0.19171384 -0.24061643 -0.2090918 0.20109497 0.22400181 -0.5444423 -0.051981863
0.2247818 -0.21280919 -0.6057267 0.22398709 0.3205565 -0.18978603 0.16559365 -0.17109971
0.05043129 -0.3098465 0.16417594 -0.13918158 -0.2606461 0.14940418 -0.56987154 0.11990414
-0.033593595 0.35943782 -0.38299632 0.11532514 0.2507656 -0.22416525 0.36643812 0.15522884
-0.21715608 -0.20451638 -0.19025688 0.10860338 -0.26018924 0.010165496 -0.0052111913 0.06708444
0.34384012 -0.36927631 0.32004577 -0.3425243 -0.37836397 0.11899814 0.13290904 0.09553595
0.5251717 -0.09353995 -0.51540494 -0.33185154 -0.4701744 0.24099478 -0.33266675 0.28851825
0.27838147 0.10835982 0.11465085 -0.532799 0.18265596 0.009910967 -0.842337 -0.6290688
0.14054923 -0.17028648 0.15619676 0.085052446 0.21037073 0.108485475 -0.2012044 0.056620996
0.15321366 -0.44575003 -0.12646063 0.21492954 0.019246504 -0.20288968 0.19879432 -0.15706398
-0.04425323 -0.0760801 -0.38378626 0.0986023 -0.49135357 -0.04074047 0.036870062 0.2781416
0.24305421 0.1289404 0.04838293 0.11826128 -0.019455396 0.18358035 0.80070263 -0.08271417
-0.037613288 0.03529363 0.41514704 0.25387394 -0.21966375 -0.35564023 -0.25984374 -0.60391396
-0.09166225 0.104558185 0.26787373 0.33171165 -0.4177511 0.065538615 0.11905495 -0.41309997
-0.0044215303 -0.76391995 0.4006675 -0.33529997 -0.21651182 0.18651046 -0.3739421 0.16585581
0.1462014 0.10274366 0.07963183 -0.5062447 -0.52799773 0.40824947 0.08805257 0.07212286
-0.4253367 -0.5204557 0.14252807 -0.004500892 -0.6213953 -0.27143276 -0.28799018 0.15856299
-0.59424865 -0.05623552 0.023442013 -0.4521813 -0.21922566 0.19645612 -0.53465337 0.0011662185
-0.17602476 0.08677857 0.012481524 -0.5672988 0.07551241 0.07981256 -0.45856634 -0.23218021
